…
eight', 'slide_encoder.encoder.layers.11.ffn.fc1.bias', 'slide_encoder.encoder.layers.11.ffn.fc2.weight', 'slide_encoder.encoder.layers.11.ffn.fc2.bias', 'slide_encoder.encoder.layers.11.ffn.ffn_layernorm.weight', 'slide_encoder.encoder.layers.11.ffn.ffn_layernorm.bias', 'slide_encoder.encoder.layers.11.final_layer_norm.weight', 'slide_encoder.encoder.layers.11.final_layer_norm.bias', 'slide_encoder.encoder.layer_norm.weight', 'slide_encoder.encoder.layer_norm.bias', 'slide_encoder.norm.weight', 'slide_encoder.norm.bias', 'classifier.0.weight', 'classifier.0.bias'])
DilatedAttention(
  (k_proj): Linear(in_features=768, out_features=768, bias=True)
  (v_proj): Linear(in_features=768, out_features=768, bias=True)
  (q_proj): Linear(in_features=768, out_features=768, bias=True)
  (out_proj): Linear(in_features=768, out_features=768, bias=True)
  (inner_attn_ln): LayerNorm((768,), eps=1e-05, elementwise_affine=True)
  (dropout_module): Dropout(p=0.0, inplace=False)
)
LayerNorm((768,), eps=1e-05, elementwise_affine=True)
ClassificationHead(
  (slide_encoder): LongNetViT(
    (patch_embed): PatchEmbed(
      (proj): Linear(in_features=1536, out_features=768, bias=True)
      (norm): Identity()
    )
    (encoder): LongNetEncoder(
      (dropout_module): Dropout(p=0.1, inplace=False)
      (layers): ModuleList(
        (0): LongNetEncoderLayer(
          (self_attn): DilatedAttention(
            (k_proj): Linear(in_features=768, out_features=768, bias=True)
            (v_proj): Linear(in_features=768, out_features=768, bias=True)
            (q_proj): Linear(in_features=768, out_features=768, bias=True)
            (out_proj): Linear(in_features=768, out_features=768, bias=True)
            (inner_attn_ln): LayerNorm((768,), eps=1e-05, elementwise_affine=True)
            (dropout_module): Dropout(p=0.0, inplace=False)
          )
          (self_attn_layer_norm): LayerNorm((768,), eps=1e-05, elementwise_affine=True)
          (dropout_module): Dropout(p=0.1, inplace=False)
          (drop_path): DropPath(p=0.0)
          (ffn): FeedForwardNetwork(
            (activation_dropout_module): Dropout(p=0.0, inplace=False)
            (dropout_module): Dropout(p=0.1, inplace=False)
            (fc1): Linear(in_features=768, out_features=3072, bias=True)
            (fc2): Linear(in_features=3072, out_features=768, bias=True)
            (ffn_layernorm): LayerNorm((3072,), eps=1e-05, elementwise_affine=True)
          )
          (final_layer_norm): LayerNorm((768,), eps=1e-05, elementwise_affine=True)
        )
        (1): LongNetEncoderLayer(
          (self_attn): DilatedAttention(
            (k_proj): Linear(in_features=768, out_features=768, bias=True)
            (v_proj): Linear(in_features=768, out_features=768, bias=True)
            (q_proj): Linear(in_features=768, out_features=768, bias=True)
            (out_proj): Linear(in_features=768, out_features=768, bias=True)
            (inner_attn_ln): LayerNorm((768,), eps=1e-05, elementwise_affine=True)
            (dropout_module): Dropout(p=0.0, inplace=False)
          )
          (self_attn_layer_norm): LayerNorm((768,), eps=1e-05, elementwise_affine=True)
          (dropout_module): Dropout(p=0.1, inplace=False)
          (drop_path): DropPath(p=0.009090909090909092)
          (ffn): FeedForwardNetwork(
            (activation_dropout_module): Dropout(p=0.0, inplace=False)
            (dropout_module): Dropout(p=0.1, inplace=False)
            (fc1): Linear(in_features=768, out_features=3072, bias=True)
            (fc2): Linear(in_features=3072, out_features=768, bias=True)
            (ffn_layernorm): LayerNorm((3072,), eps=1e-05, elementwise_affine=True)
          )
          (final_layer_norm): LayerNorm((768,), eps=1e-05, elementwise_affine=True)
        )
        (2): LongNetEncoderLayer(
          (self_attn): DilatedAttention(
            (k_proj): Linear(in_features=768, out_features=768, bias=True)
            (v_proj): Linear(in_features=768, out_features=768, bias=True)
            (q_proj): Linear(in_features=768, out_features=768, bias=True)
            (out_proj): Linear(in_features=768, out_features=768, bias=True)
            (inner_attn_ln): LayerNorm((768,), eps=1e-05, elementwise_affine=True)
            (dropout_module): Dropout(p=0.0, inplace=False)
          )
          (self_attn_layer_norm): LayerNorm((768,), eps=1e-05, elementwise_affine=True)
          (dropout_module): Dropout(p=0.1, inplace=False)
          (drop_path): DropPath(p=0.018181818181818184)
          (ffn): FeedForwardNetwork(
            (activation_dropout_module): Dropout(p=0.0, inplace=False)
            (dropout_module): Dropout(p=0.1, inplace=False)
            (fc1): Linear(in_features=768, out_features=3072, bias=True)
            (fc2): Linear(in_features=3072, out_features=768, bias=True)
            (ffn_layernorm): LayerNorm((3072,), eps=1e-05, elementwise_affine=True)
          )
          (final_layer_norm): LayerNorm((768,), eps=1e-05, elementwise_affine=True)
        )
        (3): LongNetEncoderLayer(
          (self_attn): DilatedAttention(
            (k_proj): Linear(in_features=768, out_features=768, bias=True)
            (v_proj): Linear(in_features=768, out_features=768, bias=True)
            (q_proj): Linear(in_features=768, out_features=768, bias=True)
            (out_proj): Linear(in_features=768, out_features=768, bias=True)
            (inner_attn_ln): LayerNorm((768,), eps=1e-05, elementwise_affine=True)
            (dropout_module): Dropout(p=0.0, inplace=False)
          )
          (self_attn_layer_norm): LayerNorm((768,), eps=1e-05, elementwise_affine=True)
          (dropout_module): Dropout(p=0.1, inplace=False)
          (drop_path): DropPath(p=0.027272727272727275)
          (ffn): FeedForwardNetwork(
            (activation_dropout_module): Dropout(p=0.0, inplace=False)
            (dropout_module): Dropout(p=0.1, inplace=False)
            (fc1): Linear(in_features=768, out_features=3072, bias=True)
            (fc2): Linear(in_features=3072, out_features=768, bias=True)
            (ffn_layernorm): LayerNorm((3072,), eps=1e-05, elementwise_affine=True)
          )
          (final_layer_norm): LayerNorm((768,), eps=1e-05, elementwise_affine=True)
        )
        (4): LongNetEncoderLayer(
          (self_attn): DilatedAttention(
            (k_proj): Linear(in_features=768, out_features=768, bias=True)
            (v_proj): Linear(in_features=768, out_features=768, bias=True)
            (q_proj): Linear(in_features=768, out_features=768, bias=True)
            (out_proj): Linear(in_features=768, out_features=768, bias=True)
            (inner_attn_ln): LayerNorm((768,), eps=1e-05, elementwise_affine=True)
            (dropout_module): Dropout(p=0.0, inplace=False)
          )
          (self_attn_layer_norm): LayerNorm((768,), eps=1e-05, elementwise_affine=True)
          (dropout_module): Dropout(p=0.1, inplace=False)
          (drop_path): DropPath(p=0.03636363636363637)
          (ffn): FeedForwardNetwork(
            (activation_dropout_module): Dropout(p=0.0, inplace=False)
            (dropout_module): Dropout(p=0.1, inplace=False)
            (fc1): Linear(in_features=768, out_features=3072, bias=True)
            (fc2): Linear(in_features=3072, out_features=768, bias=True)
            (ffn_layernorm): LayerNorm((3072,), eps=1e-05, elementwise_affine=True)
          )
          (final_layer_norm): LayerNorm((768,), eps=1e-05, elementwise_affine=True)
        )
        (5): LongNetEncoderLayer(
          (self_attn): DilatedAttention(
            (k_proj): Linear(in_features=768, out_features=768, bias=True)
            (v_proj): Linear(in_features=768, out_features=768, bias=True)
            (q_proj): Linear(in_features=768, out_features=768, bias=True)
            (out_proj): Linear(in_features=768, out_features=768, bias=True)
            (inner_attn_ln): LayerNorm((768,), eps=1e-05, elementwise_affine=True)
            (dropout_module): Dropout(p=0.0, inplace=False)
          )
          (self_attn_layer_norm): LayerNorm((768,), eps=1e-05, elementwise_affine=True)
          (dropout_module): Dropout(p=0.1, inplace=False)
          (drop_path): DropPath(p=0.04545454545454546)
          (ffn): FeedForwardNetwork(
            (activation_dropout_module): Dropout(p=0.0, inplace=False)
            (dropout_module): Dropout(p=0.1, inplace=False)
            (fc1): Linear(in_features=768, out_features=3072, bias=True)
            (fc2): Linear(in_features=3072, out_features=768, bias=True)
            (ffn_layernorm): LayerNorm((3072,), eps=1e-05, elementwise_affine=True)
          )
          (final_layer_norm): LayerNorm((768,), eps=1e-05, elementwise_affine=True)
        )
        (6): LongNetEncoderLayer(
          (self_attn): DilatedAttention(
            (k_proj): Linear(in_features=768, out_features=768, bias=True)
            (v_proj): Linear(in_features=768, out_features=768, bias=True)
            (q_proj): Linear(in_features=768, out_features=768, bias=True)
            (out_proj): Linear(in_features=768, out_features=768, bias=True)
            (inner_attn_ln): LayerNorm((768,), eps=1e-05, elementwise_affine=True)
            (dropout_module): Dropout(p=0.0, inplace=False)
          )
          (self_attn_layer_norm): LayerNorm((768,), eps=1e-05, elementwise_affine=True)
          (dropout_module): Dropout(p=0.1, inplace=False)
          (drop_path): DropPath(p=0.05454545454545455)
          (ffn): FeedForwardNetwork(
            (activation_dropout_module): Dropout(p=0.0, inplace=False)
            (dropout_module): Dropout(p=0.1, inplace=False)
            (fc1): Linear(in_features=768, out_features=3072, bias=True)
            (fc2): Linear(in_features=3072, out_features=768, bias=True)
            (ffn_layernorm): LayerNorm((3072,), eps=1e-05, elementwise_affine=True)
          )
          (final_layer_norm): LayerNorm((768,), eps=1e-05, elementwise_affine=True)
        )
        (7): LongNetEncoderLayer(
          (self_attn): DilatedAttention(
            (k_proj): Linear(in_features=768, out_features=768, bias=True)
            (v_proj): Linear(in_features=768, out_features=768, bias=True)
            (q_proj): Linear(in_features=768, out_features=768, bias=True)
            (out_proj): Linear(in_features=768, out_features=768, bias=True)
            (inner_attn_ln): LayerNorm((768,), eps=1e-05, elementwise_affine=True)
            (dropout_module): Dropout(p=0.0, inplace=False)
          )
          (self_attn_layer_norm): LayerNorm((768,), eps=1e-05, elementwise_affine=True)
          (dropout_module): Dropout(p=0.1, inplace=False)
          (drop_path): DropPath(p=0.06363636363636364)
          (ffn): FeedForwardNetwork(
            (activation_dropout_module): Dropout(p=0.0, inplace=False)
            (dropout_module): Dropout(p=0.1, inplace=False)
            (fc1): Linear(in_features=768, out_features=3072, bias=True)
            (fc2): Linear(in_features=3072, out_features=768, bias=True)
            (ffn_layernorm): LayerNorm((3072,), eps=1e-05, elementwise_affine=True)
          )
          (final_layer_norm): LayerNorm((768,), eps=1e-05, elementwise_affine=True)
        )
        (8): LongNetEncoderLayer(
          (self_attn): DilatedAttention(
            (k_proj): Linear(in_features=768, out_features=768, bias=True)
            (v_proj): Linear(in_features=768, out_features=768, bias=True)
            (q_proj): Linear(in_features=768, out_features=768, bias=True)
            (out_proj): Linear(in_features=768, out_features=768, bias=True)
            (inner_attn_ln): LayerNorm((768,), eps=1e-05, elementwise_affine=True)
            (dropout_module): Dropout(p=0.0, inplace=False)
          )
          (self_attn_layer_norm): LayerNorm((768,), eps=1e-05, elementwise_affine=True)
          (dropout_module): Dropout(p=0.1, inplace=False)
          (drop_path): DropPath(p=0.07272727272727274)
          (ffn): FeedForwardNetwork(
            (activation_dropout_module): Dropout(p=0.0, inplace=False)
            (dropout_module): Dropout(p=0.1, inplace=False)
            (fc1): Linear(in_features=768, out_features=3072, bias=True)
            (fc2): Linear(in_features=3072, out_features=768, bias=True)
            (ffn_layernorm): LayerNorm((3072,), eps=1e-05, elementwise_affine=True)
          )
          (final_layer_norm): LayerNorm((768,), eps=1e-05, elementwise_affine=True)
        )
        (9): LongNetEncoderLayer(
          (self_attn): DilatedAttention(
            (k_proj): Linear(in_features=768, out_features=768, bias=True)
            (v_proj): Linear(in_features=768, out_features=768, bias=True)
            (q_proj): Linear(in_features=768, out_features=768, bias=True)
            (out_proj): Linear(in_features=768, out_features=768, bias=True)
            (inner_attn_ln): LayerNorm((768,), eps=1e-05, elementwise_affine=True)
            (dropout_module): Dropout(p=0.0, inplace=False)
          )
          (self_attn_layer_norm): LayerNorm((768,), eps=1e-05, elementwise_affine=True)
          (dropout_module): Dropout(p=0.1, inplace=False)
          (drop_path): DropPath(p=0.08181818181818183)
          (ffn): FeedForwardNetwork(
            (activation_dropout_module): Dropout(p=0.0, inplace=False)
            (dropout_module): Dropout(p=0.1, inplace=False)
            (fc1): Linear(in_features=768, out_features=3072, bias=True)
            (fc2): Linear(in_features=3072, out_features=768, bias=True)
            (ffn_layernorm): LayerNorm((3072,), eps=1e-05, elementwise_affine=True)
          )
          (final_layer_norm): LayerNorm((768,), eps=1e-05, elementwise_affine=True)
        )
        (10): LongNetEncoderLayer(
          (self_attn): DilatedAttention(
            (k_proj): Linear(in_features=768, out_features=768, bias=True)
            (v_proj): Linear(in_features=768, out_features=768, bias=True)
            (q_proj): Linear(in_features=768, out_features=768, bias=True)
            (out_proj): Linear(in_features=768, out_features=768, bias=True)
            (inner_attn_ln): LayerNorm((768,), eps=1e-05, elementwise_affine=True)
            (dropout_module): Dropout(p=0.0, inplace=False)
          )
          (self_attn_layer_norm): LayerNorm((768,), eps=1e-05, elementwise_affine=True)
          (dropout_module): Dropout(p=0.1, inplace=False)
          (drop_path): DropPath(p=0.09090909090909093)
          (ffn): FeedForwardNetwork(
            (activation_dropout_module): Dropout(p=0.0, inplace=False)
            (dropout_module): Dropout(p=0.1, inplace=False)
            (fc1): Linear(in_features=768, out_features=3072, bias=True)
            (fc2): Linear(in_features=3072, out_features=768, bias=True)
            (ffn_layernorm): LayerNorm((3072,), eps=1e-05, elementwise_affine=True)
          )
          (final_layer_norm): LayerNorm((768,), eps=1e-05, elementwise_affine=True)
        )
        (11): LongNetEncoderLayer(
          (self_attn): DilatedAttention(
            (k_proj): Linear(in_features=768, out_features=768, bias=True)
            (v_proj): Linear(in_features=768, out_features=768, bias=True)
            (q_proj): Linear(in_features=768, out_features=768, bias=True)
            (out_proj): Linear(in_features=768, out_features=768, bias=True)
            (inner_attn_ln): LayerNorm((768,), eps=1e-05, elementwise_affine=True)
            (dropout_module): Dropout(p=0.0, inplace=False)
          )
          (self_attn_layer_norm): LayerNorm((768,), eps=1e-05, elementwise_affine=True)
          (dropout_module): Dropout(p=0.1, inplace=False)
          (drop_path): DropPath(p=0.1)
          (ffn): FeedForwardNetwork(
            (activation_dropout_module): Dropout(p=0.0, inplace=False)
            (dropout_module): Dropout(p=0.1, inplace=False)
            (fc1): Linear(in_features=768, out_features=3072, bias=True)
            (fc2): Linear(in_features=3072, out_features=768, bias=True)
            (ffn_layernorm): LayerNorm((3072,), eps=1e-05, elementwise_affine=True)
          )
          (final_layer_norm): LayerNorm((768,), eps=1e-05, elementwise_affine=True)
        )
      )
      (layer_norm): LayerNorm((768,), eps=1e-05, elementwise_affine=True)
    )
    (norm): LayerNorm((768,), eps=1e-06, elementwise_affine=True)
  )
  (classifier): Sequential(
    (0): Linear(in_features=1536, out_features=2, bias=True)
  )
)
2012-007-C34-45-Striatum.svs 1
tensor([[0.7141, 0.2859]], device='cuda:0')
DLB-2012-007-Amygdala-C110-115.svs 1
tensor([[0.5608, 0.4392]], device='cuda:0')
2012-007-C34-45-Striatum.svs 1
tensor([[0.7141, 0.2859]], device='cuda:0')
DLB-2012-007-Amygdala-C110-115.svs 1
tensor([[0.5608, 0.4392]], device='cuda:0')
DLB-2012-007-EntCx-Hippo-C110-115.svs 1
…
